weights/latest.pt (torch, 282981 bytes, 6 tensors)

fc1.weight f4 [256, 12]
000000 6e 11 b8 bf eb d0 d6 3e b0 e7 f6 bf 76 e6 f4 3e
       -1.4380319 0.41956267 -1.9289455 0.47832078
000010 4f 88 e0 be 3d 43 84 3f 25 ae b5 bf e5 10 73 bd
       -0.43853995 1.033302 -1.419377 -0.059342284
000020 ed 64 29 bf 01 8d 51 3d 2b 96 8c 3e 73 fc d2 be
       -0.66169626 0.051159862 0.2745832 -0.41208228
000030 89 03 56 be 71 dd 9b bc 6d db 8b be 3f 54 3c 3d
       -0.20899786 -0.01902649 -0.27315846 0.04597878
000040 22 c1 d8 3b 51 57 a4 3d a8 7d a6 be 33 d0 97 3d
       0.00661482 0.08024467 -0.32517743 0.07412758
000050 b4 99 1c be 30 28 81 be fc 8d 4c be 6f 55 52 3e
       -0.15293008 -0.25225973 -0.19976038 0.20540403
000060 f4 a6 a7 bd 1c 50 68 bd 1a d2 a7 bd 6e 55 b6 bd
       -0.08186141 -0.056717023 -0.081943706 -0.08903013
000070 f7 8a 07 be f1 96 f7 bd 04 65 90 bd 33 50 cd be
       -0.13236605 -0.12089337 -0.07050517 -0.4010025
000080 76 17 2a 3c 5d c6 0e 3d 41 95 d5 3d 57 cc 3b be
       0.01038157 0.034857143 0.104288585 -0.18339668
000090 6a 9a 06 c0 5d c8 5a 3e 22 86 0b c0 96 8f c9 bf
       -2.1031747 0.21365495 -2.1800618 -1.5746944
0000a0 a3 ac 10 3f 17 89 ea 3f fc fa a1 be 2f 33 17 c0
       0.5651342 1.8323087 -0.31636798 -2.362499
0000b0 7d a6 cd bf 62 a5 0c 3e d3 90 71 3f 1f 15 6e bf
       -1.6066433 0.13734964 0.9436161 -0.9300098
0000c0 10 ca 86 be d6 7f bf bd 41 65 75 be 98 be 00 be
       -0.26326036 -0.09350555 -0.23964407 -0.12572706
0000d0 81 d5 e7 3c 3e 4c 36 bf 10 f1 b8 3d db c1 2e bf
       0.028300049 -0.71210086 0.09030354 -0.6826455
0000e0 9c 7f ee be f3 dd a8 3d d1 ff dc be 87 be 85 3c
       -0.46581733 0.082454585 -0.43163922 0.016326202
0000f0 7c 7c d5 bd ad 90 8e be f1 60 52 be b7 f7 66 be
       -0.10424134 -0.27844754 -0.20544793 -0.22555433
000100 04 57 d8 be 6e d5 11 bf fb 46 b7 be 74 be 9f be
       -0.42253888 -0.5696629 -0.3579634 -0.31199992
000110 29 2e 5e be 76 eb ba be 69 7a 12 bf d2 e8 d3 be
       -0.21697296 -0.36507767 -0.57218033 -0.41388565
000120 7c a3 9f bf 79 54 8f bd ff aa 8f bf 42 ba 88 3c
       -1.2471766 -0.06998534 -1.1224059 0.016690377
000130 7b a8 d3 3c 0e 10 b3 be 9f d3 fa 3d bb 9c ae be
       0.025837174 -0.34973186 0.12247395 -0.3410395
000140 80 10 8a bc b9 be 71 3e 55 95 59 bf 44 e2 49 3e
       -0.016853571 0.23607911 -0.8499349 0.1971522
000150 cd 29 f0 be c3 7a d9 bd f2 1a c2 be 15 13 9a be
       -0.4690689 -0.10619118 -0.37911183 -0.30092683
000160 ec ce 79 3e bc 50 53 be 2e ed 6d bd 21 00 4a be
       0.2439534 -0.20636266 -0.05808752 -0.19726612
000170 4f 87 26 3e 2e 85 a2 be ae ae 2e be d5 0e 5b 3d
       0.16262554 -0.31742233 -0.17058823 0.05348094
000180 f8 e9 84 be 45 08 9e bd 7c 14 d2 bd 31 96 6d bd
       -0.25959754 -0.07716421 -0.10257813 -0.05800456
000190 45 40 84 bd 8c f9 60 be c0 0d 75 be 0e 35 a6 3d
       -0.06457571 -0.21970195 -0.23931026 0.08115588
0001a0 6e a7 af bc 99 19 8a 3e ab 9f 0f 3e 7b 53 25 be
       -0.021442141 0.26972654 0.14025752 -0.16145127
0001b0 9e b0 77 3f 47 f5 10 bf 79 7a 8b be 3f 4c 04 be
       0.9675387 -0.56624264 -0.27241877 -0.1291971
0001c0 6b 54 b5 bf 54 bb cf 3e bc 1f f1 bc 67 da ff bd
       -1.4166387 0.40572608 -0.029434077 -0.12492829
0001d0 62 3d 6c 3f c2 f3 a6 bf d7 a1 92 3e cd b4 58 3e
       0.9228116 -1.3043139 0.286391 0.2116272
0001e0 0f 5f a1 bf 7a d4 d0 be f2 a8 ca bf 06 18 cf bf
       -1.2607135 -0.40787107 -1.5832808 -1.6179206
0001f0 23 98 cd 3a b4 cf 90 3c e0 9c 78 be b4 68 0b bf
       0.0015685599 0.017677166 -0.24278593 -0.5445664
000200 75 f1 92 bd 49 4a 42 3e 67 48 18 3f 44 7f 5b 3e
       -0.071749605 0.1897365 0.5948548 0.21435267
000210 3c 0a 5a 3e fe 20 0f bf 8b 99 2a be 52 7c 03 bf
       0.21292967 -0.5590972 -0.16660134 -0.5136157
000220 d1 1b 1a 3f 4a bd 67 bf 19 f7 cd bd 61 0f 4b 3e
       0.60198694 -0.9052321 -0.10056896 0.19830085
000230 b4 c3 60 be 91 a1 1d bf f0 af 8a bd b5 ba d7 3d
       -0.21949655 -0.61574656 -0.06771839 0.105336584
000240 2a 9c 3d 3e 6f bd 01 bf a7 98 94 be 15 aa d2 3c
       0.18516603 -0.5067968 -0.29022714 0.025715867
000250 23 13 74 be ba 0e 6f be 98 2f e1 bc 4e da 73 be
       -0.23835425 -0.23345461 -0.027488515 -0.23813745
000260 38 b7 19 3e 7b c0 af be cf 30 57 be 2a c9 21 be
       0.15011299 -0.34326538 -0.21014713 -0.15799394
000270 63 28 7b bd 16 f5 60 be fa cb e2 be 8c e6 c0 bd
       -0.061317813 -0.21968493 -0.44296247 -0.09418973
000280 df 97 85 be fd f9 25 be 03 5c 90 be 92 2a 7d be
       -0.2609243 -0.16208644 -0.281952 -0.2472327
000290 86 99 b8 bc 1f 4d 35 3e b0 33 2e 3e 0e c7 cd bd
       -0.022534143 0.177052 0.17011905 -0.10047732
0002a0 a3 f5 13 be cc 75 93 be 07 5a b8 be 83 f0 87 3d
       -0.14449172 -0.2880081 -0.36006185 0.06637671
0002b0 58 39 42 be 8e fd 32 3e 71 bd 36 be f8 36 b6 be
       -0.18967187 0.17479536 -0.17845704 -0.35588813
0002c0 4b f7 9c be 5e 6a 4a bd c1 77 42 3e ce b3 2a be
       -0.3065742 -0.049417846 0.18990995 -0.16670153
0002d0 5f 99 99 be 87 b1 4d bf 64 af 1b bf d1 ac 8d 3c
       -0.29999825 -0.8034901 -0.608145 0.01729432
0002e0 6e fc 1d 3f 72 39 5d bd 7a f7 97 be 68 65 79 be
       0.617133 -0.054009862 -0.29680997 -0.2435509
0002f0 36 21 62 bd ab a1 1b bf a0 d5 c1 be a8 04 b5 be
       -0.055207454 -0.6079356 -0.37858295 -0.35355115
000300 37 1e 4a be 0d 50 b1 bd af 7b 04 bd af 93 3a be
       -0.19738089 -0.086578466 -0.032344516 -0.182204
000310 bf ba dd be 0d f3 af be 78 35 69 be aa 17 8d be
       -0.43306538 -0.3436512 -0.22774303 -0.27557117
000320 3f 19 4a be 68 6f 01 be 26 6e 75 be b5 aa a7 be
       -0.19736193 -0.12640154 -0.239678 -0.32747427
000330 28 e4 57 bd b2 09 3a bb 13 f1 b7 bd ed 31 86 3c
       -0.05270782 -0.0028387127 -0.08981528 0.016381228
000340 6a 15 28 be 99 9a 3c bc 20 bc 29 bb 8f 22 27 be
       -0.16414419 -0.011511468 -0.0025899485 -0.16321777
000350 3a 9e 89 be 96 f8 04 be c1 35 d9 bd 18 2b 9a be
       -0.2687853 -0.12985453 -0.10605956 -0.30111003
000360 ff 67 78 bf f4 b6 e6 be 9c 8b 8f bf 03 ff 74 bf
       -0.97033685 -0.45061457 -1.121448 -0.95701617
000370 fb 4a 56 bf 0b 67 e5 3e 83 89 4f be 77 c1 2a 3e
       -0.8370816 0.44805178 -0.202673 0.16675363
000380 17 cb a9 be e4 bc 73 be 0b 56 5f 3e b8 88 d2 be
       -0.33162758 -0.23802525 0.21810167 -0.41119933
000390 45 2b 02 be 2b aa a9 bd 79 8f 01 be 48 16 30 bd
       -0.12711819 -0.0828441 -0.12652387 -0.04299
0003a0 a5 69 b9 be da df fd be 71 39 9e be 0f 03 bb be
       -0.36213413 -0.49584848 -0.309032 -0.3652577
0003b0 a6 ee 3f bd 0e 71 f3 bd 86 2a 40 be 5b 19 0c be
       -0.046858452 -0.11886798 -0.18766221 -0.13681547
0003c0 e6 2f c6 be 82 d9 4e be 5a 82 d6 be 28 92 97 be
       -0.3870842 -0.2020016 -0.41896325 -0.29603696
0003d0 72 01 65 bf 14 07 16 bf e8 c6 c7 bd 89 f4 0a 3f
       -0.8945533 -0.5860455 -0.09754735 0.5427938
0003e0 77 24 8b be 18 dd 9a 3d d4 6a 09 bf df d2 a1 3e
       -0.27176258 0.075617015 -0.5367863 0.31606194
0003f0 ae ae 65 be 55 13 23 c0 af aa 12 c0 de 1f 20 c0
       -0.22429916 -2.548055 -2.2916677 -2.501945

fc1.bias f4 [256]
000000 9a 13 0c c0 65 23 8e be 0f c5 d1 3a b0 43 cf bf
       -2.1886964 -0.2776138 0.0016004163 -1.6192532
000010 ef 4d 01 be 12 9b 2a 3f 6c 07 d3 be ca e7 20 be
       -0.12627386 0.6664287 -0.412166 -0.1571342
000020 e3 74 93 be e7 40 e1 3e 9b b3 8e be 3b bc 76 bf
       -0.28800115 0.4399483 -0.27871403 -0.96380967
000030 f7 46 18 be fc 49 83 3d 6b 24 24 be e4 20 0d bf
       -0.14870821 0.06410596 -0.16029517 -0.5512831
000040 32 89 cd 3e e5 f0 7d 3e 32 69 d1 be a6 7b dc 3e
       0.40143734 0.24798925 -0.4090057 0.43063086
000050 4f 78 12 bf 29 7c 0d c0 f3 d9 d4 be c1 2a 34 c0
       -0.57214826 -2.2107031 -0.41572532 -2.8151095
000060 b7 ed c6 be ba 5a ca bc 05 2a 3e be 3e 4b 27 bf
       -0.38853237 -0.024701465 -0.18570717 -0.65349185
000070 97 30 de 3c 40 a2 4a be aa bb 53 bf 13 18 c2 3d
       0.027122779 -0.19788456 -0.8270823 0.09477248
000080 36 1a 00 bf 7c 34 b4 be e7 ff 81 bf 23 c6 16 3d
       -0.50039995 -0.35196292 -1.015622 0.03681005
000090 d9 3d e9 3e 59 37 15 3c f1 8d cb bd 73 fa 3e 3c
       0.45555 0.009107434 -0.099391825 0.011656391
0000a0 94 e6 94 be c7 9a 74 3e db 2a c8 3f 1a 5d b0 be
       -0.29082167 0.23887168 1.5638078 -0.3444603
0000b0 55 75 52 be f7 9c bb bd f4 22 0a be d5 12 98 3f
       -0.20552571 -0.09160798 -0.13489896 1.1880747
0000c0 6f 96 ea 3d 85 cc 1f 3f 97 79 61 be 86 2d 2f be
       0.11454474 0.6242145 -0.22019039 -0.1710721
0000d0 aa 2c 92 be b7 94 72 be 0f dd 5e be 4d dd 37 3f
       -0.285497 -0.23689543 -0.21764015 0.71822053
0000e0 5c 46 a9 be bc 3d 38 3f f4 34 4d be 2e 9e 46 bd
       -0.33061492 0.719692 -0.20039731 -0.048490696
0000f0 70 2b 5e be 01 a2 b1 be 77 2a d2 be 61 8b 2c bf
       -0.21696258 -0.34693912 -0.41048023 -0.67400175
000100 90 a9 44 3c e1 13 b7 bf cf 57 1b be 1e 7a 16 bf
       0.0120033175 -1.4302942 -0.15170215 -0.58780086
000110 35 50 83 be 2d 84 a4 3e f1 30 3b 3f e4 54 b9 be
       -0.2564713 0.32132092 0.73121554 -0.3619758
000120 81 71 fb be 23 fc 04 be 84 75 41 3e 29 18 59 be
       -0.49110034 -0.12986808 0.18892485 -0.21200623
000130 f2 b0 2d 3e 99 6d 1c 3f 13 57 4f 3e f5 37 d0 3e
       0.1696203 0.6110473 0.2024806 0.40667692
000140 28 f1 c3 be 42 89 5b 3e 0a 42 ac 3d c4 dd 59 be
       -0.38269925 0.21439078 0.084110335 -0.21276003
000150 ae 9a 3a bf a5 73 c1 3d a6 85 1b 3d ea 01 36 3e
       -0.7289227 0.094458856 0.037969254 0.17774168
000160 49 5e 4c 3f 66 08 9e 3e 3d 8c 97 3c 64 67 1e 3e
       0.7983137 0.30865782 0.018499488 0.15469128
000170 c7 92 cb be 76 2d c0 be 8a 44 e8 be 2f 6a 5d be
       -0.3976042 -0.37534684 -0.4536479 -0.21622537
000180 80 8b c8 3d 0c 6d 97 3f 1d 78 eb bf b1 72 1c bf
       0.097922325 1.1830153 -1.8396031 -0.61112505
000190 c6 47 32 3e de 44 c4 3f f9 9e 11 bf 09 06 a2 be
       0.17410192 1.5333517 -0.568832 -0.3164523
0001a0 e5 52 12 3e cc 4f ed be 1a 82 b2 be 56 26 c2 be
       0.14289434 -0.46349943 -0.34864885 -0.37919873
0001b0 ba b3 e7 be 03 30 58 be 22 b5 99 be 96 8c 0b be
       -0.45254308 -0.21112065 -0.30021006 -0.13627848
0001c0 75 2f 03 be cb 7c aa 3e d7 2c 90 bc 7e ef c0 3f
       -0.12811072 0.33298334 -0.017599506 1.5073087
0001d0 d0 5e ab bd 40 70 ea be 3a ec b1 bd 3f 77 97 bd
       -0.083676934 -0.45788765 -0.08687635 -0.07395791
0001e0 50 3f ac bf ca ed 08 be 06 30 12 3f d2 cf d5 3b
       -1.3456821 -0.1337196 0.5710453 0.0065250183
0001f0 63 c0 21 3e 8b 13 10 3f 4c b0 44 3f 96 20 09 3f
       0.15796046 0.5627982 0.7683151 0.5356535
000200 0f a6 c9 be 40 b0 a8 be 1a 6d 6b be d3 96 00 be
       -0.39384505 -0.32946968 -0.22990838 -0.12557535
000210 f3 03 fe 3d 62 3a db 3e c2 8a 47 3e f2 99 c5 3e
       0.12403097 0.4281798 0.19486526 0.38594013
000220 11 f3 87 3e ed 7b 94 3d 68 fb cc 3e c0 ad 52 bf
       0.26552632 0.072501995 0.40035558 -0.8229637
000230 b6 12 31 bd 8c ff d5 bd bc 44 8f be 5a 70 dd bd
       -0.043230735 -0.10449132 -0.27982128 -0.10812445
000240 0b ca 1e be 88 52 47 be fb 36 0a 3e d8 58 d1 be
       -0.15506761 -0.19465077 0.13497536 -0.40888095
000250 7e 64 3c 3e 60 41 93 be 8f 92 bc 3d c1 e4 ce bf
       0.1839771 -0.28760815 0.09207641 -1.616356
000260 39 49 15 bd 07 ca 9e bd 37 cc eb 3d 5c f8 23 be
       -0.036446784 -0.077533774 0.1151356 -0.1601271
000270 7a 34 75 bd 68 f7 3c 3f d3 51 c4 be ef 59 bf be
       -0.0598645 0.7381501 -0.38343677 -0.373733
000280 00 12 f1 be a9 e4 91 be ea 0a 21 be f1 d4 36 be
       -0.47084045 -0.28494766 -0.1572682 -0.17854668
000290 b0 15 9e bd 32 a8 b5 bc 6b 29 22 be c6 b7 16 be
       -0.0771898 -0.022174928 -0.15836112 -0.14718542
0002a0 63 a7 e8 bd f3 62 1e bd 2f d8 de be 37 ac d0 3e
       -0.113600515 -0.038668584 -0.4352431 0.4075639
0002b0 6f 8a de 3d 8c 11 bc be 43 f7 9c bf a7 4f be 3e
       0.10866248 -0.36732137 -1.2262958 0.37170145
0002c0 ed f2 3d 3e b4 3b 97 3e 14 f4 a4 be 97 09 46 be
       0.185497 0.29537737 -0.32217467 -0.19339596
0002d0 46 b2 f3 bd 5b 15 86 3e 4b 7a 2f be b0 96 26 bd
       -0.11899237 0.26188168 -0.17136495 -0.04067105
0002e0 0c b9 1b c0 1a 6f 22 c0 35 1a 4a be c5 a6 26 bf
       -2.4331694 -2.538031 -0.1973656 -0.6509822
0002f0 72 0f bf be c6 c6 35 3e b6 4f e2 3e f5 9c 03 3e
       -0.3731647 0.17751607 0.4420144 0.12852843
000300 d2 8a 45 be 3e dc e7 3d 53 12 96 be df 43 3b bf
       -0.19291237 0.11321305 -0.29310855 -0.7315044
000310 33 9b 46 be 6b 75 97 be d7 f8 82 bc 45 11 b1 3e
       -0.19395141 -0.2958177 -0.015987797 0.34583488
000320 5a f7 99 3e d0 91 69 be 77 d0 58 bc 87 95 dd be
       0.30071527 -0.2280953 -0.013233296 -0.43278143
000330 fc 90 ac be 6d 93 c2 bd 15 99 24 be 32 91 e1 3e
       -0.33704364 -0.095007755 -0.16074021 0.44056088
000340 e5 b5 0d 3e f2 20 83 3f d7 14 d7 be f4 a0 76 3e
       0.13838919 1.0244429 -0.42008087 0.24084836
000350 62 dc e8 be c4 a0 3f c0 36 bd 31 3e 50 21 a5 3e
       -0.4548064 -2.9941874 0.17357334 0.32251978
000360 00 3d cd be 80 b8 d5 be b4 ce 08 3f 8d 28 cc 3e
       -0.40085602 -0.41742325 0.53440404 0.39874688
000370 68 98 27 c0 41 11 7f bf c0 db 30 3f 2f 61 f9 be
       -2.6186771 -0.996357 0.6908531 -0.48706958
000380 90 9e 1c 3f e7 fe 23 bf 9d 9d 3b bf a0 0b 8e be
       0.6117945 -0.64060825 -0.73287374 -0.27743244
000390 6a f5 94 3e b2 26 fa be 20 49 62 be 4f 0a 2b be
       0.29093486 -0.48857647 -0.22098207 -0.16703151
0003a0 59 64 fa be 55 63 a1 3e 3e 9f af bf 96 24 ed be
       -0.48904684 0.31521097 -1.3720472 -0.46316975
0003b0 3c e7 e7 be 39 88 02 be f3 84 21 be 67 63 2b be
       -0.45293605 -0.12747277 -0.15773372 -0.16737138
0003c0 52 e2 a2 bf c0 62 06 bf d5 fd 28 bd fc b9 aa bf
       -1.2725317 -0.5249443 -0.041257698 -1.3338008
0003d0 6b 07 b3 3e df 7d a3 3e c2 f2 a8 3d 22 12 9a 3f
       0.34966597 0.3193197 0.082494274 1.2036784
0003e0 f8 d0 54 be 81 0e 21 be 94 86 c8 be ae 48 98 be
       -0.2078284 -0.15728189 -0.39165175 -0.2974295
0003f0 32 cb b4 be 21 46 46 3e f9 81 36 be 96 bc 7d 3e
       -0.35311276 0.1936269 -0.17823018 0.24778971

fc2.weight f4 [256, 256]
000000 42 99 6b bd 7f f0 60 3c 77 c9 3c 3d 20 0f f0 bb
       -0.057519205 0.013729214 0.04609057 -0.007326022
000010 e5 d3 e7 3c db ba 5e bd c5 6a 03 3d 35 01 b0 bb
       0.028299281 -0.054377418 0.032084245 -0.0053712376
000020 d0 1e 75 3c 76 94 9e bc 2d 6f b4 bd 98 c7 aa bc
       0.01496096 -0.019357901 -0.088102676 -0.020847127
000030 0f 2d 34 bd 0f be 30 3c ce fd 4a bc fc 5c 78 3d
       -0.043988284 0.010787501 -0.012389613 0.06063555
000040 db c8 3b 3d 3b a5 26 3d 46 36 64 bb 0a 94 4b 3d
       0.045845848 0.04068492 -0.0034822389 0.049701728
000050 d4 b6 5e 3d a5 b9 03 3d 95 d7 a8 bb d6 71 43 bd
       0.054373577 0.032159466 -0.0051526525 -0.047715984
000060 86 4d 3e 3d 46 b2 ff 3c cf 57 ed 3c 7b 8d 2b bd
       0.04646065 0.031212937 0.028972534 -0.041882973
000070 c3 19 36 bd a0 66 bf bc 85 b8 ab bc 60 13 45 bd
       -0.044458162 -0.023364365 -0.02096201 -0.04811418
000080 dd 8d 93 bc 40 9f e4 bb 16 7d 59 bb 45 ac 1f bd
       -0.018011982 -0.006976992 -0.003318613 -0.03898265
000090 19 ec 19 3d 92 64 35 bb 9e e6 5a bd ae 5d 34 bd
       0.037578676 -0.0027678353 -0.05344259 -0.044034652
0000a0 15 64 9f bc ab 2b bd 3b f2 d0 20 bd 40 15 ce ba
       -0.019456903 0.005773028 -0.039261766 -0.0015722886
0000b0 f8 cd ef bb ff 61 64 3d b8 a0 65 bd 60 9b 66 bd
       -0.0073182546 0.05575752 -0.056061476 -0.05630052
0000c0 2e 53 7a bd 25 e7 8c bd 37 19 5b 3d ea b6 0b bd
       -0.061114483 -0.06880025 0.053490844 -0.034109987
0000d0 3e 3e 05 b9 09 06 1e 3d 10 f8 8c bb e9 6a ea bc
       -0.00012707055 0.038579974 -0.0043020323 -0.028615432
0000e0 ac 45 98 3c 4d 6b 00 3d b7 7b 6a 3d 5b 99 36 bd
       0.01858791 0.03135233 0.05724689 -0.044579845
0000f0 c3 1b fa bc 4d cc 2e bd 0b 98 2a 3d 6e 1d 28 3d
       -0.030530816 -0.042675305 0.041648906 0.04104369
000100 a1 b2 82 bd 05 c6 4b 3d a0 41 66 bd 75 44 5c 3b
       -0.06381727 0.049749393 -0.05621493 0.003361014
000110 98 d1 5f 3c 7d 34 5c 3c bc 33 87 3d e4 19 8c bc
       0.013660811 0.013440249 0.066016644 -0.01710219
000120 19 d9 29 bb 88 c7 e5 3b 57 86 ec bc 66 de 1c bd
       -0.0025916754 0.0070123114 -0.028872652 -0.038298033
000130 9c 1c 21 3d a0 6e e0 bc 54 14 fb bc e8 81 8f bd
       0.039333925 -0.0273965 -0.030649342 -0.070071995
000140 b2 ed 69 3d 32 6d e2 bc a8 b7 3d 3d ea e5 09 3c
       0.05711145 -0.027639959 0.046317726 0.008416632
000150 a2 6d 21 bd cb a0 5d 3c 77 7c f7 3c f4 48 03 bc
       -0.039411195 0.013527106 0.030210717 -0.008012999
000160 7f d4 20 3d 43 9b fc 3b 56 09 1e bd 40 98 91 3b
       0.039265152 0.0077089383 -0.038583122 0.0044431984
000170 6c ce 3c bd f0 db 21 bc 82 83 cf bc 8e 32 75 bd
       -0.046095297 -0.009879097 -0.025331262 -0.059862666
000180 06 b7 ca bb 45 4f e1 bc bc a8 71 bd ac c3 97 bc
       -0.006186369 -0.027503619 -0.05899881 -0.01852592
000190 d7 2e 32 bd f1 da 6a bd 5d fb 38 3c 40 64 d6 bc
       -0.0435017 -0.057337705 0.011290398 -0.02617085
0001a0 5b 31 86 bd 5a e1 57 3c f7 60 d0 bb 4c 23 13 bd
       -0.065523826 0.013176287 -0.0063592154 -0.035922334
0001b0 d4 7d c8 bc c2 50 29 3d ea 80 79 3c ee f0 be 3c
       -0.024474062 0.041336782 0.015228489 0.023308244
0001c0 56 b7 25 bd a0 f8 7c bd 8d c3 25 3b 61 6b 8e bd
       -0.040458046 -0.061760545 0.002529356 -0.06954075
0001d0 af 45 9f 3c 91 2b a2 3b e1 c6 3a 3d 3b 9b fe bc
       0.019442407 0.004949041 0.045599822 -0.031079879
0001e0 e8 b5 26 3d 03 5c 26 bb 16 6e 42 3d f6 6d de bc
       0.040700823 -0.0025384433 0.047468267 -0.027152043
0001f0 37 00 9d 3c 3a 5e 96 3c c0 55 cd bc ef 7a 07 bd
       0.019165142 0.018355478 -0.025065303 -0.033076223
000200 3f bf c2 bc 50 70 68 3c e5 31 39 bc b0 04 53 3c
       -0.023772834 0.014186934 -0.0113034 0.012879536
000210 9e 3d 12 bd b8 31 a2 bc 59 67 e4 bc b2 2b 9b 3c
       -0.035703294 -0.019799098 -0.027881311 0.018941734
000220 df 68 50 3c 5b 7f 57 bd 50 3c fc bc d4 45 7c 3c
       0.012720316 -0.05261169 -0.030790478 0.015397508
000230 e2 ee 09 3c 37 dc 3c 3d 4c cd 2c 3d 45 e9 02 3d
       0.0084187705 0.04610845 0.042187974 0.031960744
000240 6b ec 1d bd 3e 31 57 bc 5d 2a 43 3d be f9 48 bd
       -0.038555544 -0.013134299 0.047647823 -0.049066298
000250 b5 6f 24 3d de 95 23 3d 29 e2 76 3c ab cc 02 bd
       0.040145595 0.039937846 0.015068569 -0.031933468
000260 4d 14 83 3c f6 0f 9b bc 8f 74 cd bc b5 b7 44 bd
       0.016000891 -0.01892851 -0.025079994 -0.04802676
000270 b1 5f a0 39 f1 82 02 3d b4 a7 8b bd 62 b9 5b 3d
       0.00030588874 0.031863157 -0.06819096 0.05364359
000280 f9 db 17 bd 80 a4 e2 bb a6 04 2e 3d dd 54 b1 3c
       -0.037075017 -0.0069165826 0.0424849 0.021646911
000290 f1 42 65 bc 9a 9d 88 3b 0c 43 66 3d 6f 6a 67 3d
       -0.013993011 0.004169178 0.056216285 0.056497987
0002a0 31 18 47 bd 42 92 89 bd 5a dd f6 3c 7e 7b ba b9
       -0.048607055 -0.067173496 0.030134846 -0.00035568693
0002b0 d7 a4 86 bd 0c af 50 bd 88 7f 8e bd 3c 18 92 bd
       -0.065744095 -0.050948188 -0.069579184 -0.071335286
0002c0 60 d5 48 3c 74 ff 92 3c 08 16 20 bd a3 f4 e4 3c
       0.012257904 0.017944075 -0.03908351 0.027948683
0002d0 5b b7 d4 3c d7 f3 2a 3d bd a7 95 3c 0d 95 54 bd
       0.025966337 0.04173645 0.01826846 -0.05189996
0002e0 f9 c2 0a 3c 4d 1e ba 3c c2 5d 57 3d 80 c6 7d bc
       0.008469337 0.022719527 0.05257965 -0.015489221
0002f0 f8 a6 ab bd a6 3f a3 bc 0f 46 2e bd 46 2e 36 bd
       -0.08381456 -0.01992781 -0.04254728 -0.044477724
000300 01 8d 3f bd 68 a4 f7 3c 7b 9e 6a 3c 3e 83 b7 3a
       -0.04676533 0.030229762 0.014320011 0.0014000905
000310 98 7b 0a bc 55 69 4a 3d f0 0e 02 bd 78 67 81 3c
       -0.008452319 0.04941686 -0.031752527 0.015796408
000320 2f 3b 5b bc ef fc 4e 3d 84 cb 24 3d 62 11 05 bd
       -0.01338081 0.050534185 0.04023315 -0.03248728
000330 d3 37 21 bd 32 94 85 bd 0b b2 03 bd 7a dd 62 bc
       -0.03935988 -0.06522407 -0.032152217 -0.013846749
000340 a1 d9 9e 3c 84 52 1a bb 07 3b 07 3b c2 73 3b bb
       0.019390883 -0.0023547718 0.0020634548 -0.0028602933
000350 e7 51 92 3b 40 f0 f3 3c 38 8c 67 bd d1 62 45 3d
       0.00446533 0.029777646 -0.056530207 0.04818994
000360 72 63 2f bc 4a 4c d7 3b 42 d2 f8 bc 76 bf 86 bc
       -0.010704862 0.0065703737 -0.030373696 -0.016448718
000370 6a a2 23 bd 00 b4 2b 3b 2e 90 48 bc 4e 6e 08 bd
       -0.039949812 0.0026199818 -0.012241406 -0.03330832
000380 25 c4 eb bc 19 fe fb bc 2d 68 14 bd 06 96 2f 3d
       -0.028780052 -0.030760812 -0.036232162 0.042867683
000390 55 d4 c3 3c 7c 26 5b bd 60 27 e8 3b 8a c6 9b 3a
       0.023904959 -0.0535035 0.007084772 0.0011884731
0003a0 fb b5 87 bd bf 05 92 bc f0 54 75 3c 57 4a a3 3b
       -0.06626507 -0.017825006 0.014973864 0.0049832272
0003b0 40 07 00 3c 8e 7a 95 3c 15 aa d6 3c 6d 7a 8d bd
       0.007814229 0.018246915 0.026204148 -0.069081165
0003c0 ab a0 5d 3c 38 e6 33 bd 11 7e 3b bd d8 be 5c bd
       0.013527076 -0.043920726 -0.045774523 -0.05389294
0003d0 63 02 bc bb ee e5 f2 3c 91 c1 2e bd b0 7d 73 3c
       -0.005737589 0.029650655 -0.042665068 0.014861509
0003e0 c6 17 fe ba 99 ac 28 bd 49 8b 5a bd 03 54 f7 3c
       -0.0019385747 -0.041180227 -0.05335549 0.030191427
0003f0 59 58 76 bd e2 4a 49 3d 55 2d 81 bd 0b ae 47 3d
       -0.06014285 0.04914368 -0.063074745 0.048749965

fc2.bias f4 [256]
000000 d3 60 ea bc 07 4c 6d bd 4c 95 9a 40 70 5e a2 bc
       -0.028610623 -0.057933833 4.8307247 -0.019820422
000010 d0 a3 34 be 49 9b 00 be 14 ed 17 be 6a b7 4b be
       -0.17640615 -0.12559237 -0.14836532 -0.19894186
000020 3b 3a 7b bd 3c d4 c1 bd 58 bc ff bc 34 6b b4 bd
       -0.06133483 -0.094643086 -0.031217739 -0.0880951
000030 88 3e 18 3f 03 c9 67 bd b4 68 5e 41 b0 2d 4d be
       0.59470415 -0.056588184 13.900562 -0.2003696
000040 a1 b1 6d 3f 48 5d ff bd 15 82 21 be 91 c3 74 be
       0.92849165 -0.12468964 -0.15772279 -0.23902728
000050 50 5b 76 be dc a1 61 3f 8c af 2c bd 6a 67 1e be
       -0.2405827 0.881376 -0.042159602 -0.15469137
000060 e9 5c 7f be a3 8e be bd 4f 7e 25 be e8 db 89 41
       -0.24937786 -0.093045495 -0.16161464 17.232376
000070 55 b6 2d bd 81 94 43 be 4f fb 28 be 58 34 58 3f
       -0.042410214 -0.19099618 -0.16502117 0.8445487
000080 83 e5 55 be 4b 0a 6e bd 12 1b ee 3c 43 90 5a 3f
       -0.20888333 -0.058115285 0.029065643 0.85376376
000090 c0 72 3f be 92 af 81 be c5 53 8a bd 57 fe 69 bd
       -0.18696117 -0.25329262 -0.06754259 -0.057127323
0000a0 78 a4 21 be 3e 1b 93 bd 7a e2 6c bd af 09 a4 bd
       -0.15785396 -0.071829304 -0.057833172 -0.080096595
0000b0 6b 33 25 be cc b7 af bd b4 c1 22 3d 47 91 cc bd
       -0.16132896 -0.08579978 0.03973551 -0.09988647
0000c0 6f 59 8c bd b1 33 07 be cc a0 fc bd ef 85 46 be
       -0.068529956 -0.13203312 -0.12335357 -0.19387029
0000d0 53 5b ee bd a4 77 d8 bd 28 13 ec bd cb 48 0b be
       -0.116385125 -0.10569695 -0.11527091 -0.13601987
0000e0 51 ef ae 3e 94 0f 04 be 8a c1 2f be ff f4 29 be
       0.3416696 -0.12896568 -0.17163673 -0.16597365
0000f0 60 5a 70 bd 4c 29 0c be 7d e1 00 be c9 b2 9b 39
       -0.05867994 -0.13687629 -0.12586017 0.0002969711
000100 e5 37 93 be d4 fc 0e be a5 d8 4f bd 07 d3 1a be
       -0.28753582 -0.13963634 -0.050743718 -0.15119563
000110 87 06 a6 bd 4a e5 0b be 99 0f c0 bd 8e 47 35 3c
       -0.08106714 -0.13661686 -0.09377975 0.011064423
000120 66 06 20 be f1 b7 b9 bd 49 2e 02 be cb ce 8c bd
       -0.15627441 -0.09068287 -0.12712969 -0.0687538
000130 d8 93 c8 40 27 e1 92 bd cc 66 f6 bd 18 e0 4a bd
       6.2680473 -0.07171851 -0.12031326 -0.04953012
000140 ea 4a 7c bd 46 59 11 be a0 29 28 be 82 2a 26 bd
       -0.06159488 -0.14194211 -0.16422129 -0.040567882
000150 96 4f 26 be 12 95 7c be 57 18 37 bd ed 34 1b be
       -0.16241297 -0.24666241 -0.044700947 -0.15156908
000160 e3 7b 0f be 24 fc 84 bd a5 61 1b be a6 80 1d be
       -0.14012103 -0.064934045 -0.15173967 -0.15381107
000170 75 1b 72 be cf cd 2e be 0b 5e 5e bd 19 d0 50 bc
       -0.23643287 -0.17070697 -0.054288905 -0.012744927
000180 a6 8e 8a bd f2 31 e5 bb 47 99 73 41 31 58 87 be
       -0.06765489 -0.0069944793 15.224921 -0.26434472
000190 98 f8 d9 bd 6e 57 f0 bd 1a 01 13 be 46 57 92 bd
       -0.106431186 -0.11735426 -0.14355889 -0.07145552
0001a0 dd a4 9e bb be 0a bc bd 9d 8e 43 be 82 07 d5 bd
       -0.0048414306 -0.091817364 -0.19097371 -0.104018226
0001b0 ce 25 55 be 3f bb 87 3e a5 48 f1 bd da 48 46 be
       -0.20815203 0.26510045 -0.11781434 -0.19363728
0001c0 69 2e 08 bc d8 fd fd bc 25 2e 54 bd 06 29 12 be
       -0.008311846 -0.031004831 -0.05180182 -0.14273462
0001d0 d1 6e 52 3b 83 83 f0 bd 3a 14 33 be 73 b1 96 bd
       0.0032109509 -0.11743834 -0.17488185 -0.073580645
0001e0 92 96 67 be fd 6e 04 be ed 62 20 be 01 13 0c bd
       -0.22616032 -0.12932964 -0.15662737 -0.03419781
0001f0 37 9d b9 bc 34 6d a2 bd 1b fc 1c be b6 12 3c bd
       -0.022657974 -0.07930985 -0.15330546 -0.04591628
000200 e7 64 55 bd f4 67 10 be b0 98 e0 bd 03 72 94 bd
       -0.05209818 -0.14102155 -0.10966623 -0.072483085
000210 42 13 ba bd c6 df d1 bd a6 3b bd bd f5 f6 ca bd
       -0.090857044 -0.102477595 -0.09239893 -0.099103846
000220 1f 31 b0 be 6a ab 04 be 67 3c 00 3d 6f 66 52 bd
       -0.34412476 -0.12956014 0.031307604 -0.05136722
000230 50 16 d9 3f 52 97 8a be 98 48 13 be 00 45 31 bd
       1.6959934 -0.27068573 -0.14383161 -0.043278694
000240 41 a4 b5 bd 45 80 20 bd 66 32 1f be 24 44 2b be
       -0.088692196 -0.039184827 -0.15546569 -0.16725212
000250 38 38 29 be 20 1e 4e be f1 40 ac bd 21 1c b5 3c
       -0.16525352 -0.2012868 -0.08410824 0.02210814
000260 b2 b7 59 40 88 ff 96 3f a1 13 0d be 7a 79 1b be
       3.4018369 1.1796732 -0.13777019 -0.15183058
000270 8d a8 37 bd ea 9b 28 be d7 c6 97 3a 82 2b a5 bd
       -0.044838477 -0.16465726 0.0011579645 -0.08064939
000280 f0 c3 40 be 4f 5c 95 be f3 0e e1 bd d2 80 89 bd
       -0.18824744 -0.29171988 -0.109891795 -0.06714024
000290 2a 97 05 be 34 d7 80 be 04 0e af bd 84 89 cf bd
       -0.13045946 -0.25164187 -0.08547595 -0.10133651
0002a0 79 8a a6 bd a0 58 1e 3f 2c 4b 96 be 72 c8 2c bd
       -0.0813188 0.6185398 -0.29354227 -0.042183347
0002b0 1d 86 30 be 1d 9b d1 bd 3c 0c ac bd 32 71 1f be
       -0.1723866 -0.10234664 -0.08400771 -0.15570524
0002c0 ed 86 83 bd 44 e1 a3 be e4 35 d3 bd ce e4 82 be
       -0.064222194 -0.32007802 -0.10313013 -0.2556519
0002d0 13 51 65 bd ea 12 cd bd 9a 90 94 bd 4d bb ab bc
       -0.05598552 -0.10013373 -0.07254143 -0.020963335
0002e0 0b ac 95 3e c5 17 4e be 71 e8 d5 bd ba 23 ea bd
       0.2923282 -0.20126255 -0.10444725 -0.114325956
0002f0 71 11 30 be 8b 5f 65 bd a1 99 98 bd e3 5f 39 40
       -0.17194153 -0.05599932 -0.074511774 2.8964775
000300 48 02 c8 bd 3f 97 89 3c b8 ff 75 bd 74 aa 16 3d
       -0.0976606 0.016795753 -0.060058326 0.03678365
000310 41 3b 3e bd 05 d3 eb bd 34 83 2a 3f 9b 40 be bd
       -0.046443228 -0.11514858 0.6660645 -0.09289666
000320 0e 72 08 be c5 0a 33 be 84 60 47 bd 84 79 4c be
       -0.13324758 -0.17484577 -0.04867603 -0.1996823
000330 de 69 bd bd 9d e6 27 be 4c 67 c0 bd 98 3b a7 bd
       -0.09248708 -0.16396566 -0.09394702 -0.081656635
000340 37 67 f7 3c bc 27 be bd 25 a0 63 be e6 c1 95 bd
       0.030200584 -0.092849225 -0.22229059 -0.07312374
000350 d1 99 05 bd 31 fc 92 bd bd d8 8e bd 3e ec 4b be
       -0.032617394 -0.07177008 -0.06974933 -0.19914338
000360 4e 2f ae bd cf 30 07 be 81 08 77 bd 4e 87 20 be
       -0.085051164 -0.13202213 -0.060310844 -0.15676615
000370 9a c1 17 be 6d 85 84 be 66 81 4b bd 40 9f 86 3f
       -0.14819947 -0.25883046 -0.04968395 1.0517349
000380 c2 b6 c2 be 75 de c8 bd ea 4e 2f bd d6 63 53 be
       -0.38030058 -0.09808055 -0.042799868 -0.20643553
000390 99 ad 38 3c 43 b9 9f bd 56 c2 8c 3f ae f3 5d bd
       0.011271858 -0.07799008 1.0996807 -0.05418747
0003a0 d7 71 5a be b1 46 fe be cc 56 3a be 0d 5b 9f bd
       -0.21332489 -0.49663308 -0.18197173 -0.077810384
0003b0 ae 8a af bd 4c 45 61 bd 15 a9 08 be 73 28 6e be
       -0.08571373 -0.054997727 -0.1334575 -0.23257618
0003c0 c4 0d d5 bd 63 38 69 be 30 bd de bd ec e7 eb bd
       -0.10403016 -0.22775416 -0.108759284 -0.11518845
0003d0 d2 8e 72 be da 8e 58 3f 2b 0a c0 bc be c5 88 3f
       -0.23687294 0.84592974 -0.023442348 1.0685346
0003e0 27 5f 1b be 76 bb 3a be 37 a6 1d be ce ae ac bd
       -0.15173016 -0.18235573 -0.15395437 -0.08431779
0003f0 6d fe 1e 3d 42 7e 25 3d f7 14 4b 3d cd dd a2 bd
       0.038816858 0.040403612 0.04958054 -0.079524614

fc3.weight f4 [4, 256]
000000 e1 ec 70 3c b1 ee 0d bd 03 b3 57 bd d5 c1 22 3e
       0.014704914 -0.034651462 -0.052660953 0.15894254
000010 4f 81 8e 3d 0a 13 33 bc 8d a9 14 bd e8 6c ab bc
       0.069582574 -0.010929832 -0.03629451 -0.020925954
000020 a9 29 f7 bc 5d 84 2a 3d 58 23 56 bd 57 e7 0d 3e
       -0.030171232 0.041630138 -0.0522798 0.1385778
000030 90 fb 28 be 6c 08 5b 3d 6e ef bf bf 28 92 4f 3d
       -0.16502213 0.05347483 -1.4994943 0.050676495
000040 73 65 8c 3c 8c 0d bc bd 26 0a 06 3e b8 23 f4 bd
       0.017138219 -0.09182271 0.13089809 -0.11920875
000050 63 33 e8 bc 02 c7 1f bf 44 7e cc 3e 58 cf 71 3c
       -0.028344816 -0.62413037 0.39940083 0.014758907
000060 a4 15 e0 bc 88 76 bb 3d 33 59 b6 3d de ce 02 c0
       -0.027354069 0.091534674 0.08903732 -2.0438762
000070 00 88 30 3b 5b de db 3c 74 9c 1a be 69 9f 4f 3d
       0.002693653 0.026839426 -0.15098745 0.050689135
000080 bd e5 2d bc e9 25 19 3d dd b2 c4 bd 86 a9 39 bc
       -0.010613856 0.03738967 -0.09604428 -0.011331921
000090 77 e3 32 3c 60 dc 40 bd 24 4d ff 3c 07 0b e9 3c
       0.01091849 -0.047085166 0.031164713 0.028447641
0000a0 97 c9 3f 3d bf 31 30 3b e8 d6 dd bc 37 13 90 bc
       0.04682311 0.002688512 -0.027080014 -0.017587287
0000b0 b6 85 07 3e 37 6d 0f bc d8 e3 bd bb d4 da f5 3c
       0.132346 -0.008754066 -0.0057949834 0.030011572
0000c0 dc bf 1c bd 94 5e 0d 3d 59 9a 48 3c 91 83 50 3d
       -0.03826891 0.034514025 0.012243831 0.05090672
0000d0 de fc a1 3c 10 2d 0a 3e 05 89 6e 3c 40 64 9f bb
       0.019773897 0.13493752 0.014559035 -0.0048642457
0000e0 38 1a 71 bd 7d c6 57 3d b1 ed 32 3c ad 03 ca 3d
       -0.058862895 0.052679528 0.010920928 0.09863982
0000f0 42 35 8b 3c c4 58 f3 3c 3e 25 9f 3c e9 84 50 3c
       0.016993169 0.029705413 0.019426938 0.012727001
000100 12 a1 02 be f4 dc a6 bd e4 31 ce 3c bd 5f e9 bd
       -0.12756756 -0.08147612 0.025170274 -0.11395214
000110 4c 97 43 bd 08 aa 85 bd b6 0c 4c 3d 33 73 ef 3b
       -0.04775171 -0.065265715 0.04981681 0.007307434
000120 f7 09 ad bc d1 b8 78 3d 17 80 af 3c da 97 da 3c
       -0.021122916 0.06072313 0.021423383 0.026683737
000130 09 7c 14 3e 70 ac 8d bd 90 b4 f9 bb fd 5f 7f 3d
       0.1450044 -0.069176555 -0.0076204017 0.0623474
000140 ec 4a 9d 3d 9d ad f1 bc 14 b0 6b 3d 80 38 4e 3d
       0.07680306 -0.02950173 0.057540968 0.05034685
000150 a8 3a db 3c 3a f5 05 bc 02 91 85 bd 91 ee cd bd
       0.026761368 -0.008176142 -0.06521799 -0.100552686
000160 eb 6c 90 bd 11 06 3d 3d 74 00 95 3d 0e a0 74 bd
       -0.070520245 0.046148364 0.07275477 -0.059722953
000170 21 b3 0c 3d 09 24 99 3d 08 06 2f 3d 76 c0 8e bc
       0.034350518 0.07477576 0.04273036 -0.017425757
000180 64 fa 03 be 5e f5 0d 3d 95 59 ed bf 4c f6 ae bd
       -0.12888485 0.03465783 -1.8542963 -0.08543071
000190 22 00 9d 3d 02 f6 16 bd 8b e5 eb 3b dc ba 06 3d
       0.07666041 -0.036855705 0.0071989945 0.032893047
0001a0 4f 31 f8 3c 17 d1 b1 3b bc 4c 39 3d 90 f9 29 3c
       0.03029695 0.005426537 0.045239195 0.010374442
0001b0 6c 64 44 3d c2 0d 58 bc fa b6 5e bc 71 3a 62 3d
       0.047947332 -0.013186874 -0.01359343 0.055231515
0001c0 78 74 ab 3d f2 07 71 bd dd c6 46 3d a8 28 12 3d
       0.08371824 -0.058845468 0.048529495 0.035683304
0001d0 a7 45 3f 3d 6b 88 b9 be 2c 69 3c 3d e5 30 8c bd
       0.046697285 -0.3623689 0.045998737 -0.068452634
0001e0 1a 07 8f 3b 02 4d 8c bd 77 4d 00 3d d2 3d f2 3c
       0.0043648602 -0.068506256 0.031323876 0.029570494
0001f0 24 00 e6 3c f2 17 4f bd 57 8c 04 be 24 8b ac 3d
       0.028076239 -0.050559945 -0.1294416 0.084249765
000200 e1 6d c9 bc 5d d1 08 bd 03 57 70 3d 1f 4d 8e 3c
       -0.024588527 -0.03340279 0.05867673 0.017370759
000210 e2 8c cf bd ae ca 63 3d 65 17 67 bd 0b 69 36 3c
       -0.10134293 0.055613212 -0.056418795 0.011133443
000220 2c ea 4c be 7f dc 01 3e db 54 07 bd 26 46 2b bd
       -0.20011204 0.12681769 -0.03303991 -0.041814946
000230 b1 31 80 bf f4 9e 5f bd be 40 c0 3c c1 44 4f 3c
       -1.0015165 -0.05459495 0.023468371 0.01265067
000240 b1 5b 50 bd e6 af 10 bd f3 05 05 3e 72 34 cf 3c
       -0.050868694 -0.035324 0.1299055 0.025293563
000250 e7 e9 ed 3a af d4 99 ba a5 61 d5 3d 4d a0 76 bd
       0.0018151373 -0.0011736358 0.10419015 -0.06021147
000260 e8 b7 31 bd 2a a9 0a 3d 76 d4 50 bd 25 2d 59 3b
       -0.043388277 0.033852734 -0.05098387 0.003313848
000270 6e a0 5d bd 1f dd 93 3d d4 bb 0a 3d 16 82 09 bd
       -0.054108076 0.0721991 0.033870533 -0.033571325
000280 b1 d2 b6 3d 3d c0 99 3d ea 30 d5 3c 02 1e a5 bd
       0.08926905 0.0750737 0.0260243 -0.08062364
000290 b4 b7 7b bd 24 aa 4f 3d 10 7f 2f 3d 75 f0 87 3d
       -0.06145449 0.050699368 0.042845786 0.066376604
0002a0 a8 7d 4d 3d 13 19 82 be f1 7f 18 3e 0c c2 be bc
       0.050168663 -0.25409755 0.14892556 -0.023285888
0002b0 97 99 f6 bc 11 4f 02 3e a5 0f 0f be 63 e9 b8 bc
       -0.030102534 0.12725474 -0.13970812 -0.022572225
0002c0 65 2d d5 bb cd c6 3a be 24 81 40 bc b5 0b 42 bd
       -0.0065056556 -0.18239899 -0.0117495395 -0.047374446
0002d0 af c2 37 3c f4 2f ea bc b1 48 d1 bc 91 8c 0a bc
       0.01121585 -0.028587319 -0.025547357 -0.008456365
0002e0 18 41 e3 bd 0f 63 f3 3c 27 f5 0e be e4 38 ef 3c
       -0.110964 0.02971032 -0.13960706 0.029201932
0002f0 03 50 3b bd e7 79 c8 be 6e a4 5a bd 5a f0 fd bd
       -0.045730602 -0.39155504 -0.05337947 -0.12399359
000300 83 d1 b8 3d a8 2c a2 3c 9e 06 e3 bd 0b 4a 0f 3d
       0.09024336 0.019796684 -0.110852465 0.034982722
000310 fc a5 26 3d 3b 58 9d 3c f7 a2 6a bd 2f 0a 37 bc
       0.04068564 0.01920711 -0.05728432 -0.011171862
000320 76 14 a6 bd f5 c7 85 bd 55 3a a1 bc af 91 2d 3d
       -0.08109371 -0.065322794 -0.019681135 0.042375263
000330 e8 13 0a bd 84 0a 10 3d b1 7d 81 3c f8 9f f1 bc
       -0.03371039 0.03516628 0.015807005 -0.029495224
000340 d7 99 6d 3d 64 39 94 bd 7f 6e 65 bd aa d5 36 bd
       0.05800804 -0.07237509 -0.05601358 -0.04463736
000350 6e 69 5e bb 10 b0 80 bd 69 45 b7 bd 16 f8 c2 bd
       -0.0033937353 -0.06283581 -0.08948786 -0.09519975
000360 37 bf 20 3d 72 04 da 3c f4 44 ec 3c 87 0f 85 bb
       0.039244857 0.026613448 0.028841473 -0.004060689
000370 5c 52 55 bc 05 0f 54 3d ab 8e 7f 3d 96 6e ae be
       -0.013020124 0.051772136 0.06239192 -0.34068745
000380 2d 4b bd 3d 82 e9 0a 3b f0 45 b3 3c 49 ee 1d 3d
       0.09242854 0.002119631 0.021883935 0.038557325
000390 06 a3 ce bc 37 26 f1 bc eb 35 28 be 97 94 41 3d
       -0.02522422 -0.029437168 -0.16426818 0.047260847
0003a0 2c f9 94 bd 50 25 6e 3d d2 c1 4c 3d 3c e1 b9 3c
       -0.07274088 0.058141053 0.04998953 0.022690408
0003b0 65 da 0d bc 89 63 12 3d 77 58 f0 3c 6e b1 fb bc
       -0.008658026 0.035739455 0.029339058 -0.030724254
0003c0 ca 5d 6e 3d 43 bb e0 3d a6 34 13 be 7a ff 60 3c
       0.058194913 0.10973217 -0.14375553 0.013732785
0003d0 a7 cd 08 be fc f4 df bd c9 e2 a6 3e bc 71 8f bd
       -0.133597 -0.10935399 0.32594898 -0.07004115
0003e0 33 50 01 3e ef 67 11 bd 01 02 ff 3b 0a 24 c7 3d
       0.1262825 -0.03549951 0.0077822213 0.09723671
0003f0 4a f1 bd 3c 8d dd 52 3c 3d 72 e7 3d 6f 8b 1e 3d
       0.023186345 0.012870205 0.11301086 0.038707193

fc3.bias f4 [4]
000000 2f ef 09 c0 b8 13 37 c0 f9 d2 32 c0 49 e8 3a c0
       -2.1552236 -2.8605785 -2.7941267 -2.9204276
